…
# Creates a single output, 0 or 1 
model.add(Dense(10, activation='relu'))
# Compiles the model using the 'adam' optimiser. Specifying what the loss is. The metric tracked is accuracy, shows how well the model is classifying either 0 or 1.
model.compile('adam', loss=tf.losses.CategoricalCrossentropy(), metrics=['accuracy'])
# Displays how the model transforms the data
model.summary()
Model: "sequential"
_________________________________________________________________
 Layer (type)                Output Shape              Param #   
=================================================================
 conv2d (Conv2D)             (None, 254, 254, 16)      448       
                                                                 
 max_pooling2d (MaxPooling2D  (None, 127, 127, 16)     0         
 )                                                               
                                                                 
 conv2d_1 (Conv2D)           (None, 125, 125, 32)      4640      
                                                                 
 max_pooling2d_1 (MaxPooling  (None, 62, 62, 32)       0         
 2D)                                                             
                                                                 
 conv2d_2 (Conv2D)           (None, 60, 60, 16)        4624      
                                                                 
 max_pooling2d_2 (MaxPooling  (None, 30, 30, 16)       0         
 2D)                                                             
                                                                 
 flatten (Flatten)           (None, 14400)             0         
                                                                 
 dense (Dense)               (None, 256)               3686656   
                                                                 
 dense_1 (Dense)             (None, 10)                2570      
                                                                 
=================================================================
Total params: 3,698,938
Trainable params: 3,698,938
Non-trainable params: 0
_________________________________________________________________
# Refers to the logs directory
logdir='logs'
# Logs model training into the 'logs' file
tensorboard_callback = tf.keras.callbacks.TensorBoard(log_dir=logdir)
…
